…
I0928 19:44:35.605732 13304 net.cpp:339] The NetState phase (0) differed from the phase (1) specified by a rule in layer mnist
I0928 19:44:35.605732 13304 net.cpp:339] The NetState phase (0) differed from the phase (1) specified by a rule in layer accuracy
I0928 19:44:35.606734 13304 net.cpp:50] Initializing net from parameters: 
name: "LeNet"
state {
  phase: TRAIN
}
layer {
  name: "mnist"
  type: "Data"
  top: "data"
  top: "label"
  include {
    phase: TRAIN
  }
  transform_param {
    scale: 0.00390625
  }
  data_param {
    source: "examples/mnist/mnist_train_leveldb"
    batch_size: 64
    backend: LEVELDB
  }
}
layer {
  name: "conv1"
  type: "Convolution"
  bottom: "data"
  top: "conv1"
  param {
    lr_mult: 1
  }
  param {
    lr_mult: 2
  }
  convolution_param {
    num_output: 20
    kernel_size: 5
    stride: 1
    weight_filler {
      type: "xavier"
    }
    bias_filler {
      type: "constant"
    }
  }
}
layer {
  name: "pool1"
  type: "Pooling"
  bottom: "conv1"
  top: "pool1"
  pooling_param {
    pool: MAX
    kernel_size: 2
    stride: 2
  }
}
layer {
  name: "conv2"
  type: "Convolution"
  bottom: "pool1"
  top: "conv2"
  param {
    lr_mult: 1
  }
  param {
    lr_mult: 2
  }
  convolution_param {
    num_output: 50
    kernel_size: 5
    stride: 1
    weight_filler {
      type: "xavier"
    }
    bias_filler {
      type: "constant"
    }
  }
}
layer {
  name: "pool2"
  type: "Pooling"
  bottom: "conv2"
  top: "pool2"
  pooling_param {
    pool: MAX
    kernel_size: 2
    stride: 2
  }
}
layer {
  name: "ip1"
  type: "InnerProduct"
  bottom: "pool2"
  top: "ip1"
  param {
    lr_mult: 1
  }
  param {
    lr_mult: 2
  }
  inner_product_param {
    num_output: 500
    weight_filler {
      type: "xavier"
    }
    bias_filler {
      type: "constant"
    }
  }
}
layer {
  name: "relu1"
  type: "ReLU"
  bottom: "ip1"
  top: "ip1"
}
layer {
  name: "ip2"
  type: "InnerProduct"
  bottom: "ip1"
  top: "ip2"
  param {
    lr_mult: 1
  }
  param {
    lr_mult: 2
  }
  inner_product_param {
    num_output: 10
    weight_filler {
      type: "xavier"
    }
    bias_filler {
      type: "constant"
    }
  }
}
layer {
  name: "loss"
  type: "SoftmaxWithLoss"
  bottom: "ip2"
  bottom: "label"
  top: "loss"
}
I0928 19:44:35.607734 13304 net.cpp:76] Memory required for data: 0
I0928 19:44:35.607734 13304 layer_factory.hpp:76] Creating layer mnist
I0928 19:44:35.607734 13304 common.cpp:32] System entropy source not available, using fallback algorithm to generate seed instead.
I0928 19:44:35.608737 13304 net.cpp:110] Creating Layer mnist
I0928 19:44:35.608737 13304 net.cpp:433] mnist -> data
I0928 19:44:35.609737 13304 net.cpp:433] mnist -> label
I0928 19:44:35.620749  7100 db_leveldb.cpp:17] Opened leveldb examples/mnist/mnist_train_leveldb
I0928 19:44:35.620749 13304 data_layer.cpp:44] output data size: 64,1,28,28
I0928 19:44:35.621753 13304 base_data_layer.cpp:66] Initializing prefetch
I0928 19:44:35.622752 13304 base_data_layer.cpp:69] Prefetch initialized.
I0928 19:44:35.622752 13304 net.cpp:155] Setting up mnist
I0928 19:44:35.622752 13304 net.cpp:163] Top shape: 64 1 28 28 (50176)
I0928 19:44:35.622752 13304 net.cpp:163] Top shape: 64 (64)
I0928 19:44:35.622752 13304 net.cpp:174] Memory required for data: 200960
I0928 19:44:35.622752 13304 layer_factory.hpp:76] Creating layer conv1
I0928 19:44:35.622752 13304 net.cpp:110] Creating Layer conv1
I0928 19:44:35.623752 13304 net.cpp:477] conv1 <- data
I0928 19:44:35.623752 13304 net.cpp:433] conv1 -> conv1
I0928 19:44:35.623752 13304 net.cpp:155] Setting up conv1
I0928 19:44:35.623752 13304 net.cpp:163] Top shape: 64 20 24 24 (737280)
I0928 19:44:35.623752 13304 net.cpp:174] Memory required for data: 3150080
I0928 19:44:35.624753 13304 layer_factory.hpp:76] Creating layer pool1
I0928 19:44:35.624753 13304 net.cpp:110] Creating Layer pool1
I0928 19:44:35.624753 13304 net.cpp:477] pool1 <- conv1
I0928 19:44:35.624753 13304 net.cpp:433] pool1 -> pool1
I0928 19:44:35.625754 13304 net.cpp:155] Setting up pool1
I0928 19:44:35.625754 13304 net.cpp:163] Top shape: 64 20 12 12 (184320)
I0928 19:44:35.625754 13304 net.cpp:174] Memory required for data: 3887360
I0928 19:44:35.625754 13304 layer_factory.hpp:76] Creating layer conv2
I0928 19:44:35.625754 13304 net.cpp:110] Creating Layer conv2
I0928 19:44:35.625754 13304 net.cpp:477] conv2 <- pool1
I0928 19:44:35.625754 13304 net.cpp:433] conv2 -> conv2
I0928 19:44:35.626756  4520 data_layer.cpp:105] Prefetch batch: 4 ms.
I0928 19:44:35.626756  4520 data_layer.cpp:106]      Read time: 0 ms.
I0928 19:44:35.626756  4520 data_layer.cpp:107] Transform time: 4.004 ms.
I0928 19:44:35.630760 13304 net.cpp:155] Setting up conv2
I0928 19:44:35.630760 13304 net.cpp:163] Top shape: 64 50 8 8 (204800)
I0928 19:44:35.631762 13304 net.cpp:174] Memory required for data: 4706560
I0928 19:44:35.631762 13304 layer_factory.hpp:76] Creating layer pool2
I0928 19:44:35.631762 13304 net.cpp:110] Creating Layer pool2
I0928 19:44:35.631762  4520 data_layer.cpp:105] Prefetch batch: 5 ms.
I0928 19:44:35.631762 13304 net.cpp:477] pool2 <- conv2
I0928 19:44:35.631762  4520 data_layer.cpp:106]      Read time: 0 ms.
I0928 19:44:35.631762  4520 data_layer.cpp:107] Transform time: 3.003 ms.
I0928 19:44:35.631762 13304 net.cpp:433] pool2 -> pool2
I0928 19:44:35.631762 13304 net.cpp:155] Setting up pool2
I0928 19:44:35.632763 13304 net.cpp:163] Top shape: 64 50 4 4 (51200)
I0928 19:44:35.632763 13304 net.cpp:174] Memory required for data: 4911360
I0928 19:44:35.632763 13304 layer_factory.hpp:76] Creating layer ip1
I0928 19:44:35.632763 13304 net.cpp:110] Creating Layer ip1
I0928 19:44:35.632763 13304 net.cpp:477] ip1 <- pool2
I0928 19:44:35.632763 13304 net.cpp:433] ip1 -> ip1
I0928 19:44:35.636766  4520 data_layer.cpp:105] Prefetch batch: 5 ms.
I0928 19:44:35.636766  4520 data_layer.cpp:106]      Read time: 0 ms.
I0928 19:44:35.636766  4520 data_layer.cpp:107] Transform time: 3.003 ms.
I0928 19:44:35.684840 13304 net.cpp:155] Setting up ip1
I0928 19:44:35.684840 13304 net.cpp:163] Top shape: 64 500 (32000)
I0928 19:44:35.684840 13304 net.cpp:174] Memory required for data: 5039360
I0928 19:44:35.685842 13304 layer_factory.hpp:76] Creating layer relu1
I0928 19:44:35.685842 13304 net.cpp:110] Creating Layer relu1
I0928 19:44:35.685842 13304 net.cpp:477] relu1 <- ip1
I0928 19:44:35.685842 13304 net.cpp:419] relu1 -> ip1 (in-place)
I0928 19:44:35.685842 13304 net.cpp:155] Setting up relu1
I0928 19:44:35.685842 13304 net.cpp:163] Top shape: 64 500 (32000)
I0928 19:44:35.685842 13304 net.cpp:174] Memory required for data: 5167360
I0928 19:44:35.685842 13304 layer_factory.hpp:76] Creating layer ip2
I0928 19:44:35.685842 13304 net.cpp:110] Creating Layer ip2
I0928 19:44:35.685842 13304 net.cpp:477] ip2 <- ip1
I0928 19:44:35.685842 13304 net.cpp:433] ip2 -> ip2
I0928 19:44:35.686842 13304 net.cpp:155] Setting up ip2
I0928 19:44:35.686842 13304 net.cpp:163] Top shape: 64 10 (640)
I0928 19:44:35.686842 13304 net.cpp:174] Memory required for data: 5169920
I0928 19:44:35.686842 13304 layer_factory.hpp:76] Creating layer loss
I0928 19:44:35.686842 13304 net.cpp:110] Creating Layer loss
I0928 19:44:35.686842 13304 net.cpp:477] loss <- ip2
I0928 19:44:35.686842 13304 net.cpp:477] loss <- label
I0928 19:44:35.687844 13304 net.cpp:433] loss -> loss
I0928 19:44:35.687844 13304 layer_factory.hpp:76] Creating layer loss
…
I0928 19:44:35.691828 13304 solver.cpp:190] Creating test net (#0) specified by net file: examples/mnist/lenet_train_test.prototxt
I0928 19:44:35.691828 13304 net.cpp:339] The NetState phase (1) differed from the phase (0) specified by a rule in layer mnist
I0928 19:44:35.692831 13304 net.cpp:50] Initializing net from parameters: 
name: "LeNet"
state {
  phase: TEST
}
layer {
  name: "mnist"
  type: "Data"
  top: "data"
  top: "label"
  include {
    phase: TEST
  }
  transform_param {
    scale: 0.00390625
  }
  data_param {
    source: "examples/mnist/mnist_test_leveldb"
    batch_size: 100
    backend: LEVELDB
  }
}
layer {
  name: "conv1"
  type: "Convolution"
  bottom: "data"
  top: "conv1"
  param {
    lr_mult: 1
  }
  param {
    lr_mult: 2
  }
  convolution_param {
    num_output: 20
    kernel_size: 5
    stride: 1
    weight_filler {
      type: "xavier"
    }
    bias_filler {
      type: "constant"
    }
  }
}
layer {
  name: "pool1"
  type: "Pooling"
  bottom: "conv1"
  top: "pool1"
  pooling_param {
    pool: MAX
    kernel_size: 2
    stride: 2
  }
}
layer {
  name: "conv2"
  type: "Convolution"
  bottom: "pool1"
  top: "conv2"
  param {
    lr_mult: 1
  }
  param {
    lr_mult: 2
  }
  convolution_param {
    num_output: 50
    kernel_size: 5
    stride: 1
    weight_filler {
      type: "xavier"
    }
    bias_filler {
      type: "constant"
    }
  }
}
layer {
  name: "pool2"
  type: "Pooling"
  bottom: "conv2"
  top: "pool2"
  pooling_param {
    pool: MAX
    kernel_size: 2
    stride: 2
  }
}
layer {
  name: "ip1"
  type: "InnerProduct"
  bottom: "pool2"
  top: "ip1"
  param {
    lr_mult: 1
  }
  param {
    lr_mult: 2
  }
  inner_product_param {
    num_output: 500
    weight_filler {
      type: "xavier"
    }
    bias_filler {
      type: "constant"
    }
  }
}
layer {
  name: "relu1"
  type: "ReLU"
  bottom: "ip1"
  top: "ip1"
}
layer {
  name: "ip2"
  type: "InnerProduct"
  bottom: "ip1"
  top: "ip2"
  param {
    lr_mult: 1
  }
  param {
    lr_mult: 2
  }
  inner_product_param {
    num_output: 10
    weight_filler {
      type: "xavier"
    }
    bias_filler {
      type: "constant"
    }
  }
}
layer {
  name: "accuracy"
  type: "Accuracy"
  bottom: "ip2"
  bottom: "label"
  top: "accuracy"
  include {
    phase: TEST
  }
}
layer {
  name: "loss"
  type: "SoftmaxWithLoss"
  bottom: "ip2"
  bottom: "label"
  top: "loss"
}
I0928 19:44:35.693831 13304 net.cpp:76] Memory required for data: 0
I0928 19:44:35.693831 13304 layer_factory.hpp:76] Creating layer mnist
I0928 19:44:35.695833 13304 net.cpp:110] Creating Layer mnist
I0928 19:44:35.695833 13304 net.cpp:433] mnist -> data
I0928 19:44:35.695833 13304 net.cpp:433] mnist -> label
I0928 19:44:35.704864 15304 db_leveldb.cpp:17] Opened leveldb examples/mnist/mnist_test_leveldb
I0928 19:44:35.705847 13304 data_layer.cpp:44] output data size: 100,1,28,28
I0928 19:44:35.705847 13304 base_data_layer.cpp:66] Initializing prefetch
I0928 19:44:35.706866 13304 base_data_layer.cpp:69] Prefetch initialized.
I0928 19:44:35.706866 13304 net.cpp:155] Setting up mnist
I0928 19:44:35.706866 13304 net.cpp:163] Top shape: 100 1 28 28 (78400)
I0928 19:44:35.706866 13304 net.cpp:163] Top shape: 100 (100)
I0928 19:44:35.706866 13304 net.cpp:174] Memory required for data: 314000
I0928 19:44:35.706866 13304 layer_factory.hpp:76] Creating layer label_mnist_1_split
I0928 19:44:35.707847 13304 net.cpp:110] Creating Layer label_mnist_1_split
I0928 19:44:35.707847 13304 net.cpp:477] label_mnist_1_split <- label
I0928 19:44:35.707847 13304 net.cpp:433] label_mnist_1_split -> label_mnist_1_split_0
I0928 19:44:35.707847 13304 net.cpp:433] label_mnist_1_split -> label_mnist_1_split_1
I0928 19:44:35.707847 13304 net.cpp:155] Setting up label_mnist_1_split
I0928 19:44:35.708848 13304 net.cpp:163] Top shape: 100 (100)
I0928 19:44:35.708848 13304 net.cpp:163] Top shape: 100 (100)
I0928 19:44:35.708848 13304 net.cpp:174] Memory required for data: 314800
I0928 19:44:35.708848 13304 layer_factory.hpp:76] Creating layer conv1
I0928 19:44:35.708848 13304 net.cpp:110] Creating Layer conv1
I0928 19:44:35.708848 13304 net.cpp:477] conv1 <- data
I0928 19:44:35.708848 13304 net.cpp:433] conv1 -> conv1
I0928 19:44:35.709849 13304 net.cpp:155] Setting up conv1
I0928 19:44:35.709849 13304 net.cpp:163] Top shape: 100 20 24 24 (1152000)
I0928 19:44:35.709849 13304 net.cpp:174] Memory required for data: 4922800
I0928 19:44:35.709849 13304 layer_factory.hpp:76] Creating layer pool1
I0928 19:44:35.709849 13304 net.cpp:110] Creating Layer pool1
I0928 19:44:35.709849 13304 net.cpp:477] pool1 <- conv1
I0928 19:44:35.709849 13304 net.cpp:433] pool1 -> pool1
I0928 19:44:35.710850 13304 net.cpp:155] Setting up pool1
I0928 19:44:35.710850 13304 net.cpp:163] Top shape: 100 20 12 12 (288000)
I0928 19:44:35.710850 13304 net.cpp:174] Memory required for data: 6074800
I0928 19:44:35.710850 13304 layer_factory.hpp:76] Creating layer conv2
I0928 19:44:35.710850 13304 net.cpp:110] Creating Layer conv2
I0928 19:44:35.710850 13304 net.cpp:477] conv2 <- pool1
I0928 19:44:35.710850 13304 net.cpp:433] conv2 -> conv2
I0928 19:44:35.713855  6044 data_layer.cpp:105] Prefetch batch: 6 ms.
I0928 19:44:35.713855  6044 data_layer.cpp:106]      Read time: 0 ms.
I0928 19:44:35.713855  6044 data_layer.cpp:107] Transform time: 5.988 ms.
I0928 19:44:35.719861 13304 net.cpp:155] Setting up conv2
I0928 19:44:35.719861 13304 net.cpp:163] Top shape: 100 50 8 8 (320000)
I0928 19:44:35.719861 13304 net.cpp:174] Memory required for data: 7354800
I0928 19:44:35.719861 13304 layer_factory.hpp:76] Creating layer pool2
I0928 19:44:35.719861 13304 net.cpp:110] Creating Layer pool2
I0928 19:44:35.719861 13304 net.cpp:477] pool2 <- conv2
I0928 19:44:35.719861 13304 net.cpp:433] pool2 -> pool2
I0928 19:44:35.720861 13304 net.cpp:155] Setting up pool2
I0928 19:44:35.720861 13304 net.cpp:163] Top shape: 100 50 4 4 (80000)
I0928 19:44:35.720861 13304 net.cpp:174] Memory required for data: 7674800
I0928 19:44:35.720861 13304 layer_factory.hpp:76] Creating layer ip1
I0928 19:44:35.720861 13304 net.cpp:110] Creating Layer ip1
I0928 19:44:35.720861 13304 net.cpp:477] ip1 <- pool2
I0928 19:44:35.720861 13304 net.cpp:433] ip1 -> ip1
I0928 19:44:35.721863  6044 data_layer.cpp:105] Prefetch batch: 8 ms.
I0928 19:44:35.721863  6044 data_layer.cpp:106]      Read time: 2.002 ms.
I0928 19:44:35.721863  6044 data_layer.cpp:107] Transform time: 3.003 ms.
I0928 19:44:35.729871  6044 data_layer.cpp:105] Prefetch batch: 8 ms.
I0928 19:44:35.729871  6044 data_layer.cpp:106]      Read time: 0 ms.
I0928 19:44:35.729871  6044 data_layer.cpp:107] Transform time: 5.005 ms.
I0928 19:44:35.773922 13304 net.cpp:155] Setting up ip1
I0928 19:44:35.773922 13304 net.cpp:163] Top shape: 100 500 (50000)
I0928 19:44:35.773922 13304 net.cpp:174] Memory required for data: 7874800
I0928 19:44:35.773922 13304 layer_factory.hpp:76] Creating layer relu1
I0928 19:44:35.773922 13304 net.cpp:110] Creating Layer relu1
I0928 19:44:35.774924 13304 net.cpp:477] relu1 <- ip1
I0928 19:44:35.774924 13304 net.cpp:419] relu1 -> ip1 (in-place)
I0928 19:44:35.774924 13304 net.cpp:155] Setting up relu1
I0928 19:44:35.774924 13304 net.cpp:163] Top shape: 100 500 (50000)
I0928 19:44:35.774924 13304 net.cpp:174] Memory required for data: 8074800
I0928 19:44:35.774924 13304 layer_factory.hpp:76] Creating layer ip2
I0928 19:44:35.774924 13304 net.cpp:110] Creating Layer ip2
I0928 19:44:35.774924 13304 net.cpp:477] ip2 <- ip1
I0928 19:44:35.774924 13304 net.cpp:433] ip2 -> ip2
I0928 19:44:35.775925 13304 net.cpp:155] Setting up ip2
I0928 19:44:35.775925 13304 net.cpp:163] Top shape: 100 10 (1000)
I0928 19:44:35.775925 13304 net.cpp:174] Memory required for data: 8078800
I0928 19:44:35.775925 13304 layer_factory.hpp:76] Creating layer ip2_ip2_0_split
I0928 19:44:35.775925 13304 net.cpp:110] Creating Layer ip2_ip2_0_split
I0928 19:44:35.775925 13304 net.cpp:477] ip2_ip2_0_split <- ip2
I0928 19:44:35.775925 13304 net.cpp:433] ip2_ip2_0_split -> ip2_ip2_0_split_0
I0928 19:44:35.775925 13304 net.cpp:433] ip2_ip2_0_split -> ip2_ip2_0_split_1
I0928 19:44:35.775925 13304 net.cpp:155] Setting up ip2_ip2_0_split
I0928 19:44:35.776926 13304 net.cpp:163] Top shape: 100 10 (1000)
I0928 19:44:35.776926 13304 net.cpp:163] Top shape: 100 10 (1000)
I0928 19:44:35.776926 13304 net.cpp:174] Memory required for data: 8086800
I0928 19:44:35.776926 13304 layer_factory.hpp:76] Creating layer accuracy
I0928 19:44:35.776926 13304 net.cpp:110] Creating Layer accuracy
I0928 19:44:35.776926 13304 net.cpp:477] accuracy <- ip2_ip2_0_split_0
I0928 19:44:35.776926 13304 net.cpp:477] accuracy <- label_mnist_1_split_0
I0928 19:44:35.776926 13304 net.cpp:433] accuracy -> accuracy
…
