…
I0928 17:59:00.847458  1756 net.cpp:339] The NetState phase (0) differed from the phase (1) specified by a rule in layer mnist
I0928 17:59:00.848958  1756 net.cpp:339] The NetState phase (0) differed from the phase (1) specified by a rule in layer accuracy
I0928 17:59:00.852990  1756 net.cpp:50] Initializing net from parameters: 
name: "LeNet"
state {
  phase: TRAIN
}
layer {
  name: "mnist"
  type: "Data"
  top: "data"
  top: "label"
  include {
    phase: TRAIN
  }
  transform_param {
    scale: 0.00390625
  }
  data_param {
    source: "examples/mnist/mnist_train_leveldb"
    batch_size: 64
    backend: LEVELDB
  }
}
layer {
  name: "conv1"
  type: "Convolution"
  bottom: "data"
  top: "conv1"
  param {
    lr_mult: 1
  }
  param {
    lr_mult: 2
  }
  convolution_param {
    num_output: 20
    kernel_size: 5
    stride: 1
    weight_filler {
      type: "xavier"
    }
    bias_filler {
      type: "constant"
    }
  }
}
layer {
  name: "pool1"
  type: "Pooling"
  bottom: "conv1"
  top: "pool1"
  pooling_param {
    pool: MAX
    kernel_size: 2
    stride: 2
  }
}
layer {
  name: "conv2"
  type: "Convolution"
  bottom: "pool1"
  top: "conv2"
  param {
    lr_mult: 1
  }
  param {
    lr_mult: 2
  }
  convolution_param {
    num_output: 50
    kernel_size: 5
    stride: 1
    weight_filler {
      type: "xavier"
    }
    bias_filler {
      type: "constant"
    }
  }
}
layer {
  name: "pool2"
  type: "Pooling"
  bottom: "conv2"
  top: "pool2"
  pooling_param {
    pool: MAX
    kernel_size: 2
    stride: 2
  }
}
layer {
  name: "ip1"
  type: "InnerProduct"
  bottom: "pool2"
  top: "ip1"
  param {
    lr_mult: 1
  }
  param {
    lr_mult: 2
  }
  inner_product_param {
    num_output: 500
    weight_filler {
      type: "xavier"
    }
    bias_filler {
      type: "constant"
    }
  }
}
layer {
  name: "relu1"
  type: "ReLU"
  bottom: "ip1"
  top: "ip1"
}
layer {
  name: "ip2"
  type: "InnerProduct"
  bottom: "ip1"
  top: "ip2"
  param {
    lr_mult: 1
  }
  param {
    lr_mult: 2
  }
  inner_product_param {
    num_output: 10
    weight_filler {
      type: "xavier"
    }
    bias_filler {
      type: "constant"
    }
  }
}
layer {
  name: "loss"
  type: "SoftmaxWithLoss"
  bottom: "ip2"
  bottom: "label"
  top: "loss"
}
I0928 17:59:00.865008  1756 net.cpp:76] Memory required for data: 0
I0928 17:59:00.868005  1756 layer_factory.hpp:76] Creating layer mnist
I0928 17:59:00.871011  1756 common.cpp:32] System entropy source not available, using fallback algorithm to generate seed instead.
I0928 17:59:00.873517  1756 net.cpp:110] Creating Layer mnist
I0928 17:59:00.875025  1756 net.cpp:433] mnist -> data
I0928 17:59:00.876022  1756 net.cpp:433] mnist -> label
I0928 17:59:00.905092 15352 db_leveldb.cpp:17] Opened leveldb examples/mnist/mnist_train_leveldb
I0928 17:59:00.906595  1756 data_layer.cpp:44] output data size: 64,1,28,28
I0928 17:59:00.907598  1756 base_data_layer.cpp:66] Initializing prefetch
I0928 17:59:00.909103  1756 base_data_layer.cpp:69] Prefetch initialized.
I0928 17:59:00.909103  1756 net.cpp:155] Setting up mnist
I0928 17:59:00.910104  1756 net.cpp:163] Top shape: 64 1 28 28 (50176)
I0928 17:59:00.911106  1756 net.cpp:163] Top shape: 64 (64)
I0928 17:59:00.912108  1756 net.cpp:174] Memory required for data: 200960
I0928 17:59:00.913111  1756 layer_factory.hpp:76] Creating layer conv1
I0928 17:59:00.913612  1756 net.cpp:110] Creating Layer conv1
I0928 17:59:00.914113 13836 data_layer.cpp:105] Prefetch batch: 5 ms.
I0928 17:59:00.914113  1756 net.cpp:477] conv1 <- data
I0928 17:59:00.914614 13836 data_layer.cpp:106]      Read time: 2.002 ms.
I0928 17:59:00.915115  1756 net.cpp:433] conv1 -> conv1
I0928 17:59:00.915618 13836 data_layer.cpp:107] Transform time: 2.506 ms.
I0928 17:59:00.916118  1756 net.cpp:155] Setting up conv1
I0928 17:59:00.917121  1756 net.cpp:163] Top shape: 64 20 24 24 (737280)
I0928 17:59:00.917623  1756 net.cpp:174] Memory required for data: 3150080
I0928 17:59:00.918123  1756 layer_factory.hpp:76] Creating layer pool1
I0928 17:59:00.918624  1756 net.cpp:110] Creating Layer pool1
I0928 17:59:00.919126  1756 net.cpp:477] pool1 <- conv1
I0928 17:59:00.920127  1756 net.cpp:433] pool1 -> pool1
I0928 17:59:00.920127  1756 net.cpp:155] Setting up pool1
I0928 17:59:00.921130  1756 net.cpp:163] Top shape: 64 20 12 12 (184320)
I0928 17:59:00.921632  1756 net.cpp:174] Memory required for data: 3887360
I0928 17:59:00.921632  1756 layer_factory.hpp:76] Creating layer conv2
I0928 17:59:00.922132 13836 data_layer.cpp:105] Prefetch batch: 5 ms.
I0928 17:59:00.922132  1756 net.cpp:110] Creating Layer conv2
I0928 17:59:00.922633 13836 data_layer.cpp:106]      Read time: 1.003 ms.
I0928 17:59:00.923135  1756 net.cpp:477] conv2 <- pool1
I0928 17:59:00.923636 13836 data_layer.cpp:107] Transform time: 2.004 ms.
I0928 17:59:00.924639  1756 net.cpp:433] conv2 -> conv2
I0928 17:59:00.928648  1756 net.cpp:155] Setting up conv2
I0928 17:59:00.929149  1756 net.cpp:163] Top shape: 64 50 8 8 (204800)
I0928 17:59:00.929651  1756 net.cpp:174] Memory required for data: 4706560
I0928 17:59:00.930151 13836 data_layer.cpp:105] Prefetch batch: 5 ms.
I0928 17:59:00.930151  1756 layer_factory.hpp:76] Creating layer pool2
I0928 17:59:00.930654 13836 data_layer.cpp:106]      Read time: 0.501 ms.
I0928 17:59:00.931154  1756 net.cpp:110] Creating Layer pool2
I0928 17:59:00.932158 13836 data_layer.cpp:107] Transform time: 2.505 ms.
I0928 17:59:00.932657  1756 net.cpp:477] pool2 <- conv2
I0928 17:59:00.933662  1756 net.cpp:433] pool2 -> pool2
I0928 17:59:00.934161  1756 net.cpp:155] Setting up pool2
I0928 17:59:00.934161  1756 net.cpp:163] Top shape: 64 50 4 4 (51200)
I0928 17:59:00.934662  1756 net.cpp:174] Memory required for data: 4911360
I0928 17:59:00.935163  1756 layer_factory.hpp:76] Creating layer ip1
I0928 17:59:00.935665  1756 net.cpp:110] Creating Layer ip1
I0928 17:59:00.936167  1756 net.cpp:477] ip1 <- pool2
I0928 17:59:00.936667  1756 net.cpp:433] ip1 -> ip1
I0928 17:59:00.981776  1756 net.cpp:155] Setting up ip1
I0928 17:59:00.982779  1756 net.cpp:163] Top shape: 64 500 (32000)
I0928 17:59:00.982779  1756 net.cpp:174] Memory required for data: 5039360
I0928 17:59:00.983782  1756 layer_factory.hpp:76] Creating layer relu1
I0928 17:59:00.984282  1756 net.cpp:110] Creating Layer relu1
I0928 17:59:00.984783  1756 net.cpp:477] relu1 <- ip1
I0928 17:59:00.985285  1756 net.cpp:419] relu1 -> ip1 (in-place)
I0928 17:59:00.985786  1756 net.cpp:155] Setting up relu1
I0928 17:59:00.986286  1756 net.cpp:163] Top shape: 64 500 (32000)
I0928 17:59:00.986788  1756 net.cpp:174] Memory required for data: 5167360
I0928 17:59:00.986788  1756 layer_factory.hpp:76] Creating layer ip2
I0928 17:59:00.987289  1756 net.cpp:110] Creating Layer ip2
I0928 17:59:00.987790  1756 net.cpp:477] ip2 <- ip1
I0928 17:59:00.988291  1756 net.cpp:433] ip2 -> ip2
I0928 17:59:00.989795  1756 net.cpp:155] Setting up ip2
I0928 17:59:00.990304  1756 net.cpp:163] Top shape: 64 10 (640)
I0928 17:59:00.990799  1756 net.cpp:174] Memory required for data: 5169920
I0928 17:59:00.991299  1756 layer_factory.hpp:76] Creating layer loss
I0928 17:59:00.991799  1756 net.cpp:110] Creating Layer loss
I0928 17:59:00.992302  1756 net.cpp:477] loss <- ip2
I0928 17:59:00.992802  1756 net.cpp:477] loss <- label
I0928 17:59:00.993304  1756 net.cpp:433] loss -> loss
I0928 17:59:00.993805  1756 layer_factory.hpp:76] Creating layer loss
…
I0928 17:59:01.005852  1756 solver.cpp:190] Creating test net (#0) specified by net file: examples/mnist/lenet_train_test.prototxt
I0928 17:59:01.006347  1756 net.cpp:339] The NetState phase (1) differed from the phase (0) specified by a rule in layer mnist
I0928 17:59:01.008359  1756 net.cpp:50] Initializing net from parameters: 
name: "LeNet"
state {
  phase: TEST
}
layer {
  name: "mnist"
  type: "Data"
  top: "data"
  top: "label"
  include {
    phase: TEST
  }
  transform_param {
    scale: 0.00390625
  }
  data_param {
    source: "examples/mnist/mnist_test_leveldb"
    batch_size: 100
    backend: LEVELDB
  }
}
layer {
  name: "conv1"
  type: "Convolution"
  bottom: "data"
  top: "conv1"
  param {
    lr_mult: 1
  }
  param {
    lr_mult: 2
  }
  convolution_param {
    num_output: 20
    kernel_size: 5
    stride: 1
    weight_filler {
      type: "xavier"
    }
    bias_filler {
      type: "constant"
    }
  }
}
layer {
  name: "pool1"
  type: "Pooling"
  bottom: "conv1"
  top: "pool1"
  pooling_param {
    pool: MAX
    kernel_size: 2
    stride: 2
  }
}
layer {
  name: "conv2"
  type: "Convolution"
  bottom: "pool1"
  top: "conv2"
  param {
    lr_mult: 1
  }
  param {
    lr_mult: 2
  }
  convolution_param {
    num_output: 50
    kernel_size: 5
    stride: 1
    weight_filler {
      type: "xavier"
    }
    bias_filler {
      type: "constant"
    }
  }
}
layer {
  name: "pool2"
  type: "Pooling"
  bottom: "conv2"
  top: "pool2"
  pooling_param {
    pool: MAX
    kernel_size: 2
    stride: 2
  }
}
layer {
  name: "ip1"
  type: "InnerProduct"
  bottom: "pool2"
  top: "ip1"
  param {
    lr_mult: 1
  }
  param {
    lr_mult: 2
  }
  inner_product_param {
    num_output: 500
    weight_filler {
      type: "xavier"
    }
    bias_filler {
      type: "constant"
    }
  }
}
layer {
  name: "relu1"
  type: "ReLU"
  bottom: "ip1"
  top: "ip1"
}
layer {
  name: "ip2"
  type: "InnerProduct"
  bottom: "ip1"
  top: "ip2"
  param {
    lr_mult: 1
  }
  param {
    lr_mult: 2
  }
  inner_product_param {
    num_output: 10
    weight_filler {
      type: "xavier"
    }
    bias_filler {
      type: "constant"
    }
  }
}
layer {
  name: "accuracy"
  type: "Accuracy"
  bottom: "ip2"
  bottom: "label"
  top: "accuracy"
  include {
    phase: TEST
  }
}
layer {
  name: "loss"
  type: "SoftmaxWithLoss"
  bottom: "ip2"
  bottom: "label"
  top: "loss"
}
I0928 17:59:01.013854  1756 net.cpp:76] Memory required for data: 0
I0928 17:59:01.016360  1756 layer_factory.hpp:76] Creating layer mnist
I0928 17:59:01.018368  1756 net.cpp:110] Creating Layer mnist
I0928 17:59:01.018865  1756 net.cpp:433] mnist -> data
I0928 17:59:01.019368  1756 net.cpp:433] mnist -> label
I0928 17:59:01.029911  2516 db_leveldb.cpp:17] Opened leveldb examples/mnist/mnist_test_leveldb
I0928 17:59:01.031395  1756 data_layer.cpp:44] output data size: 100,1,28,28
I0928 17:59:01.032397  1756 base_data_layer.cpp:66] Initializing prefetch
I0928 17:59:01.033399  1756 base_data_layer.cpp:69] Prefetch initialized.
I0928 17:59:01.034402  1756 net.cpp:155] Setting up mnist
I0928 17:59:01.034904  1756 net.cpp:163] Top shape: 100 1 28 28 (78400)
I0928 17:59:01.038413  1756 net.cpp:163] Top shape: 100 (100)
I0928 17:59:01.040918  2268 data_layer.cpp:105] Prefetch batch: 6 ms.
I0928 17:59:01.041419  2268 data_layer.cpp:106]      Read time: 1.503 ms.
I0928 17:59:01.041920  2268 data_layer.cpp:107] Transform time: 4.01 ms.
I0928 17:59:01.041419  1756 net.cpp:174] Memory required for data: 314000
I0928 17:59:01.043926  1756 layer_factory.hpp:76] Creating layer label_mnist_1_split
I0928 17:59:01.046432  1756 net.cpp:110] Creating Layer label_mnist_1_split
I0928 17:59:01.046932  1756 net.cpp:477] label_mnist_1_split <- label
I0928 17:59:01.047433  1756 net.cpp:433] label_mnist_1_split -> label_mnist_1_split_0
I0928 17:59:01.047935  1756 net.cpp:433] label_mnist_1_split -> label_mnist_1_split_1
I0928 17:59:01.048436  1756 net.cpp:155] Setting up label_mnist_1_split
I0928 17:59:01.048938  1756 net.cpp:163] Top shape: 100 (100)
I0928 17:59:01.049438  1756 net.cpp:163] Top shape: 100 (100)
I0928 17:59:01.049940  1756 net.cpp:174] Memory required for data: 314800
I0928 17:59:01.050441  1756 layer_factory.hpp:76] Creating layer conv1
I0928 17:59:01.050941  2268 data_layer.cpp:105] Prefetch batch: 9 ms.
I0928 17:59:01.050941  1756 net.cpp:110] Creating Layer conv1
I0928 17:59:01.051445  2268 data_layer.cpp:106]      Read time: 1.003 ms.
I0928 17:59:01.051445  1756 net.cpp:477] conv1 <- data
I0928 17:59:01.051944  2268 data_layer.cpp:107] Transform time: 4.012 ms.
I0928 17:59:01.051944  1756 net.cpp:433] conv1 -> conv1
I0928 17:59:01.052947  1756 net.cpp:155] Setting up conv1
I0928 17:59:01.052947  1756 net.cpp:163] Top shape: 100 20 24 24 (1152000)
I0928 17:59:01.053448  1756 net.cpp:174] Memory required for data: 4922800
I0928 17:59:01.053949  1756 layer_factory.hpp:76] Creating layer pool1
I0928 17:59:01.054452  1756 net.cpp:110] Creating Layer pool1
I0928 17:59:01.054452  1756 net.cpp:477] pool1 <- conv1
I0928 17:59:01.054952  1756 net.cpp:433] pool1 -> pool1
I0928 17:59:01.055454  1756 net.cpp:155] Setting up pool1
I0928 17:59:01.055956  1756 net.cpp:163] Top shape: 100 20 12 12 (288000)
I0928 17:59:01.055956  1756 net.cpp:174] Memory required for data: 6074800
I0928 17:59:01.056455  1756 layer_factory.hpp:76] Creating layer conv2
I0928 17:59:01.056957  1756 net.cpp:110] Creating Layer conv2
I0928 17:59:01.056957  1756 net.cpp:477] conv2 <- pool1
I0928 17:59:01.057958  1756 net.cpp:433] conv2 -> conv2
I0928 17:59:01.060464  2268 data_layer.cpp:105] Prefetch batch: 8 ms.
I0928 17:59:01.060966  2268 data_layer.cpp:106]      Read time: 1 ms.
I0928 17:59:01.061467  2268 data_layer.cpp:107] Transform time: 4.008 ms.
I0928 17:59:01.061969  1756 net.cpp:155] Setting up conv2
I0928 17:59:01.062470  1756 net.cpp:163] Top shape: 100 50 8 8 (320000)
I0928 17:59:01.062973  1756 net.cpp:174] Memory required for data: 7354800
I0928 17:59:01.063973  1756 layer_factory.hpp:76] Creating layer pool2
I0928 17:59:01.063973  1756 net.cpp:110] Creating Layer pool2
I0928 17:59:01.064476  1756 net.cpp:477] pool2 <- conv2
I0928 17:59:01.064476  1756 net.cpp:433] pool2 -> pool2
I0928 17:59:01.064975  1756 net.cpp:155] Setting up pool2
I0928 17:59:01.065480  1756 net.cpp:163] Top shape: 100 50 4 4 (80000)
I0928 17:59:01.065480  1756 net.cpp:174] Memory required for data: 7674800
I0928 17:59:01.065979  1756 layer_factory.hpp:76] Creating layer ip1
I0928 17:59:01.066481  1756 net.cpp:110] Creating Layer ip1
I0928 17:59:01.066481  1756 net.cpp:477] ip1 <- pool2
I0928 17:59:01.066984  1756 net.cpp:433] ip1 -> ip1
I0928 17:59:01.111606  1756 net.cpp:155] Setting up ip1
I0928 17:59:01.112088  1756 net.cpp:163] Top shape: 100 500 (50000)
I0928 17:59:01.112591  1756 net.cpp:174] Memory required for data: 7874800
I0928 17:59:01.113091  1756 layer_factory.hpp:76] Creating layer relu1
I0928 17:59:01.113592  1756 net.cpp:110] Creating Layer relu1
I0928 17:59:01.114094  1756 net.cpp:477] relu1 <- ip1
I0928 17:59:01.114094  1756 net.cpp:419] relu1 -> ip1 (in-place)
I0928 17:59:01.114595  1756 net.cpp:155] Setting up relu1
I0928 17:59:01.114595  1756 net.cpp:163] Top shape: 100 500 (50000)
I0928 17:59:01.115097  1756 net.cpp:174] Memory required for data: 8074800
I0928 17:59:01.115597  1756 layer_factory.hpp:76] Creating layer ip2
I0928 17:59:01.115597  1756 net.cpp:110] Creating Layer ip2
I0928 17:59:01.116101  1756 net.cpp:477] ip2 <- ip1
I0928 17:59:01.116600  1756 net.cpp:433] ip2 -> ip2
I0928 17:59:01.117602  1756 net.cpp:155] Setting up ip2
I0928 17:59:01.118104  1756 net.cpp:163] Top shape: 100 10 (1000)
I0928 17:59:01.118605  1756 net.cp