…
I0928 17:58:06.515677 15172 net.cpp:339] The NetState phase (0) differed from the phase (1) specified by a rule in layer mnist
I0928 17:58:06.516687 15172 net.cpp:339] The NetState phase (0) differed from the phase (1) specified by a rule in layer accuracy
I0928 17:58:06.518682 15172 net.cpp:50] Initializing net from parameters: 
name: "LeNet"
state {
  phase: TRAIN
}
layer {
  name: "mnist"
  type: "Data"
  top: "data"
  top: "label"
  include {
    phase: TRAIN
  }
  transform_param {
    scale: 0.00390625
  }
  data_param {
    source: "examples/mnist/mnist_train_leveldb"
    batch_size: 64
    backend: LEVELDB
  }
}
layer {
  name: "conv1"
  type: "Convolution"
  bottom: "data"
  top: "conv1"
  param {
    lr_mult: 1
  }
  param {
    lr_mult: 2
  }
  convolution_param {
    num_output: 20
    kernel_size: 5
    stride: 1
    weight_filler {
      type: "xavier"
    }
    bias_filler {
      type: "constant"
    }
  }
}
layer {
  name: "pool1"
  type: "Pooling"
  bottom: "conv1"
  top: "pool1"
  pooling_param {
    pool: MAX
    kernel_size: 2
    stride: 2
  }
}
layer {
  name: "conv2"
  type: "Convolution"
  bottom: "pool1"
  top: "conv2"
  param {
    lr_mult: 1
  }
  param {
    lr_mult: 2
  }
  convolution_param {
    num_output: 50
    kernel_size: 5
    stride: 1
    weight_filler {
      type: "xavier"
    }
    bias_filler {
      type: "constant"
    }
  }
}
layer {
  name: "pool2"
  type: "Pooling"
  bottom: "conv2"
  top: "pool2"
  pooling_param {
    pool: MAX
    kernel_size: 2
    stride: 2
  }
}
layer {
  name: "ip1"
  type: "InnerProduct"
  bottom: "pool2"
  top: "ip1"
  param {
    lr_mult: 1
  }
  param {
    lr_mult: 2
  }
  inner_product_param {
    num_output: 500
    weight_filler {
      type: "xavier"
    }
    bias_filler {
      type: "constant"
    }
  }
}
layer {
  name: "relu1"
  type: "ReLU"
  bottom: "ip1"
  top: "ip1"
}
layer {
  name: "ip2"
  type: "InnerProduct"
  bottom: "ip1"
  top: "ip2"
  param {
    lr_mult: 1
  }
  param {
    lr_mult: 2
  }
  inner_product_param {
    num_output: 10
    weight_filler {
      type: "xavier"
    }
    bias_filler {
      type: "constant"
    }
  }
}
layer {
  name: "loss"
  type: "SoftmaxWithLoss"
  bottom: "ip2"
  bottom: "label"
  top: "loss"
}
I0928 17:58:06.523686 15172 net.cpp:76] Memory required for data: 0
I0928 17:58:06.523686 15172 layer_factory.hpp:76] Creating layer mnist
I0928 17:58:06.532696 15172 common.cpp:32] System entropy source not available, using fallback algorithm to generate seed instead.
I0928 17:58:06.533696 15172 net.cpp:110] Creating Layer mnist
I0928 17:58:06.534698 15172 net.cpp:433] mnist -> data
I0928 17:58:06.534698 15172 net.cpp:433] mnist -> label
I0928 17:58:06.545043 13672 db_leveldb.cpp:17] Opened leveldb examples/mnist/mnist_train_leveldb
I0928 17:58:06.545043 15172 data_layer.cpp:44] output data size: 64,1,28,28
I0928 17:58:06.545043 15172 base_data_layer.cpp:66] Initializing prefetch
I0928 17:58:06.545043 15172 base_data_layer.cpp:69] Prefetch initialized.
I0928 17:58:06.545043 15172 net.cpp:155] Setting up mnist
I0928 17:58:06.545043 15172 net.cpp:163] Top shape: 64 1 28 28 (50176)
I0928 17:58:06.545043 15172 net.cpp:163] Top shape: 64 (64)
I0928 17:58:06.545043 15172 net.cpp:174] Memory required for data: 200960
I0928 17:58:06.545043 15172 layer_factory.hpp:76] Creating layer conv1
I0928 17:58:06.545043 15172 net.cpp:110] Creating Layer conv1
I0928 17:58:06.545043 15172 net.cpp:477] conv1 <- data
I0928 17:58:06.545043 15172 net.cpp:433] conv1 -> conv1
I0928 17:58:06.545043 15172 net.cpp:155] Setting up conv1
I0928 17:58:06.545043 15172 net.cpp:163] Top shape: 64 20 24 24 (737280)
I0928 17:58:06.545043 15172 net.cpp:174] Memory required for data: 3150080
I0928 17:58:06.545043 15172 layer_factory.hpp:76] Creating layer pool1
I0928 17:58:06.545043 15172 net.cpp:110] Creating Layer pool1
I0928 17:58:06.545043 15172 net.cpp:477] pool1 <- conv1
I0928 17:58:06.545043 15172 net.cpp:433] pool1 -> pool1
I0928 17:58:06.545043 15172 net.cpp:155] Setting up pool1
I0928 17:58:06.560668 15172 net.cpp:163] Top shape: 64 20 12 12 (184320)
I0928 17:58:06.560668 15172 net.cpp:174] Memory required for data: 3887360
I0928 17:58:06.560668 16328 data_layer.cpp:105] Prefetch batch: 15 ms.
I0928 17:58:06.560668 15172 layer_factory.hpp:76] Creating layer conv2
I0928 17:58:06.560668 16328 data_layer.cpp:106]      Read time: 0 ms.
I0928 17:58:06.560668 15172 net.cpp:110] Creating Layer conv2
I0928 17:58:06.560668 16328 data_layer.cpp:107] Transform time: 0 ms.
I0928 17:58:06.560668 15172 net.cpp:477] conv2 <- pool1
I0928 17:58:06.560668 15172 net.cpp:433] conv2 -> conv2
I0928 17:58:06.560668 16328 data_layer.cpp:105] Prefetch batch: 0 ms.
I0928 17:58:06.560668 16328 data_layer.cpp:106]      Read time: 0 ms.
I0928 17:58:06.560668 16328 data_layer.cpp:107] Transform time: 0 ms.
I0928 17:58:06.560668 15172 net.cpp:155] Setting up conv2
I0928 17:58:06.560668 15172 net.cpp:163] Top shape: 64 50 8 8 (204800)
I0928 17:58:06.560668 15172 net.cpp:174] Memory required for data: 4706560
I0928 17:58:06.560668 15172 layer_factory.hpp:76] Creating layer pool2
I0928 17:58:06.560668 15172 net.cpp:110] Creating Layer pool2
I0928 17:58:06.560668 15172 net.cpp:477] pool2 <- conv2
I0928 17:58:06.560668 15172 net.cpp:433] pool2 -> pool2
I0928 17:58:06.560668 15172 net.cpp:155] Setting up pool2
I0928 17:58:06.576294 15172 net.cpp:163] Top shape: 64 50 4 4 (51200)
I0928 17:58:06.576294 15172 net.cpp:174] Memory required for data: 4911360
I0928 17:58:06.576294 15172 layer_factory.hpp:76] Creating layer ip1
I0928 17:58:06.576294 16328 data_layer.cpp:105] Prefetch batch: 15 ms.
I0928 17:58:06.576294 15172 net.cpp:110] Creating Layer ip1
I0928 17:58:06.576294 16328 data_layer.cpp:106]      Read time: 0 ms.
I0928 17:58:06.576294 15172 net.cpp:477] ip1 <- pool2
I0928 17:58:06.576294 16328 data_layer.cpp:107] Transform time: 15.626 ms.
I0928 17:58:06.576294 15172 net.cpp:433] ip1 -> ip1
I0928 17:58:06.611804 15172 net.cpp:155] Setting up ip1
I0928 17:58:06.611804 15172 net.cpp:163] Top shape: 64 500 (32000)
I0928 17:58:06.611804 15172 net.cpp:174] Memory required for data: 5039360
I0928 17:58:06.611804 15172 layer_factory.hpp:76] Creating layer relu1
I0928 17:58:06.611804 15172 net.cpp:110] Creating Layer relu1
I0928 17:58:06.611804 15172 net.cpp:477] relu1 <- ip1
I0928 17:58:06.611804 15172 net.cpp:419] relu1 -> ip1 (in-place)
I0928 17:58:06.627430 15172 net.cpp:155] Setting up relu1
I0928 17:58:06.627430 15172 net.cpp:163] Top shape: 64 500 (32000)
I0928 17:58:06.627430 15172 net.cpp:174] Memory required for data: 5167360
I0928 17:58:06.627430 15172 layer_factory.hpp:76] Creating layer ip2
I0928 17:58:06.627430 15172 net.cpp:110] Creating Layer ip2
I0928 17:58:06.627430 15172 net.cpp:477] ip2 <- ip1
I0928 17:58:06.627430 15172 net.cpp:433] ip2 -> ip2
I0928 17:58:06.627430 15172 net.cpp:155] Setting up ip2
I0928 17:58:06.627430 15172 net.cpp:163] Top shape: 64 10 (640)
I0928 17:58:06.627430 15172 net.cpp:174] Memory required for data: 5169920
I0928 17:58:06.627430 15172 layer_factory.hpp:76] Creating layer loss
I0928 17:58:06.627430 15172 net.cpp:110] Creating Layer loss
I0928 17:58:06.627430 15172 net.cpp:477] loss <- ip2
I0928 17:58:06.627430 15172 net.cpp:477] loss <- label
I0928 17:58:06.627430 15172 net.cpp:433] loss -> loss
I0928 17:58:06.627430 15172 layer_factory.hpp:76] Creating layer loss
…
I0928 17:58:06.643054 15172 solver.cpp:190] Creating test net (#0) specified by net file: examples/mnist/lenet_train_test.prototxt
I0928 17:58:06.643054 15172 net.cpp:339] The NetState phase (1) differed from the phase (0) specified by a rule in layer mnist
I0928 17:58:06.643054 15172 net.cpp:50] Initializing net from parameters: 
name: "LeNet"
state {
  phase: TEST
}
layer {
  name: "mnist"
  type: "Data"
  top: "data"
  top: "label"
  include {
    phase: TEST
  }
  transform_param {
    scale: 0.00390625
  }
  data_param {
    source: "examples/mnist/mnist_test_leveldb"
    batch_size: 100
    backend: LEVELDB
  }
}
layer {
  name: "conv1"
  type: "Convolution"
  bottom: "data"
  top: "conv1"
  param {
    lr_mult: 1
  }
  param {
    lr_mult: 2
  }
  convolution_param {
    num_output: 20
    kernel_size: 5
    stride: 1
    weight_filler {
      type: "xavier"
    }
    bias_filler {
      type: "constant"
    }
  }
}
layer {
  name: "pool1"
  type: "Pooling"
  bottom: "conv1"
  top: "pool1"
  pooling_param {
    pool: MAX
    kernel_size: 2
    stride: 2
  }
}
layer {
  name: "conv2"
  type: "Convolution"
  bottom: "pool1"
  top: "conv2"
  param {
    lr_mult: 1
  }
  param {
    lr_mult: 2
  }
  convolution_param {
    num_output: 50
    kernel_size: 5
    stride: 1
    weight_filler {
      type: "xavier"
    }
    bias_filler {
      type: "constant"
    }
  }
}
layer {
  name: "pool2"
  type: "Pooling"
  bottom: "conv2"
  top: "pool2"
  pooling_param {
    pool: MAX
    kernel_size: 2
    stride: 2
  }
}
layer {
  name: "ip1"
  type: "InnerProduct"
  bottom: "pool2"
  top: "ip1"
  param {
    lr_mult: 1
  }
  param {
    lr_mult: 2
  }
  inner_product_param {
    num_output: 500
    weight_filler {
      type: "xavier"
    }
    bias_filler {
      type: "constant"
    }
  }
}
layer {
  name: "relu1"
  type: "ReLU"
  bottom: "ip1"
  top: "ip1"
}
layer {
  name: "ip2"
  type: "InnerProduct"
  bottom: "ip1"
  top: "ip2"
  param {
    lr_mult: 1
  }
  param {
    lr_mult: 2
  }
  inner_product_param {
    num_output: 10
    weight_filler {
      type: "xavier"
    }
    bias_filler {
      type: "constant"
    }
  }
}
layer {
  name: "accuracy"
  type: "Accuracy"
  bottom: "ip2"
  bottom: "label"
  top: "accuracy"
  include {
    phase: TEST
  }
}
layer {
  name: "loss"
  type: "SoftmaxWithLoss"
  bottom: "ip2"
  bottom: "label"
  top: "loss"
}
I0928 17:58:06.643054 15172 net.cpp:76] Memory required for data: 0
I0928 17:58:06.657798 15172 layer_factory.hpp:76] Creating layer mnist
I0928 17:58:06.660303 15172 net.cpp:110] Creating Layer mnist
I0928 17:58:06.660805 15172 net.cpp:433] mnist -> data
I0928 17:58:06.661806 15172 net.cpp:433] mnist -> label
I0928 17:58:06.671505   448 db_leveldb.cpp:17] Opened leveldb examples/mnist/mnist_test_leveldb
I0928 17:58:06.673008 15172 data_layer.cpp:44] output data size: 100,1,28,28
I0928 17:58:06.673509 15172 base_data_layer.cpp:66] Initializing prefetch
I0928 17:58:06.674512 15172 base_data_layer.cpp:69] Prefetch initialized.
I0928 17:58:06.676017 15172 net.cpp:155] Setting up mnist
I0928 17:58:06.677018 15172 net.cpp:163] Top shape: 100 1 28 28 (78400)
I0928 17:58:06.677520 15172 net.cpp:163] Top shape: 100 (100)
I0928 17:58:06.677520 15172 net.cpp:174] Memory required for data: 314000
I0928 17:58:06.678020 15172 layer_factory.hpp:76] Creating layer label_mnist_1_split
I0928 17:58:06.678521 15172 net.cpp:110] Creating Layer label_mnist_1_split
I0928 17:58:06.679023 15172 net.cpp:477] label_mnist_1_split <- label
I0928 17:58:06.679023 15172 net.cpp:433] label_mnist_1_split -> label_mnist_1_split_0
I0928 17:58:06.679524 15172 net.cpp:433] label_mnist_1_split -> label_mnist_1_split_1
I0928 17:58:06.680025 15172 net.cpp:155] Setting up label_mnist_1_split
I0928 17:58:06.680526 15172 net.cpp:163] Top shape: 100 (100)
I0928 17:58:06.681027 15172 net.cpp:163] Top shape: 100 (100)
I0928 17:58:06.681027 15172 net.cpp:174] Memory required for data: 314800
I0928 17:58:06.681529 15172 layer_factory.hpp:76] Creating layer conv1
I0928 17:58:06.681529 15172 net.cpp:110] Creating Layer conv1
I0928 17:58:06.682030 15172 net.cpp:477] conv1 <- data
I0928 17:58:06.682531 15172 net.cpp:433] conv1 -> conv1
I0928 17:58:06.683032 15172 net.cpp:155] Setting up conv1
I0928 17:58:06.683534 15172 net.cpp:163] Top shape: 100 20 24 24 (1152000)
I0928 17:58:06.683534 15172 net.cpp:174] Memory required for data: 4922800
I0928 17:58:06.684036 15172 layer_factory.hpp:76] Creating layer pool1
I0928 17:58:06.684536 15172 net.cpp:110] Creating Layer pool1
I0928 17:58:06.685037 15172 net.cpp:477] pool1 <- conv1
I0928 17:58:06.685037 15172 net.cpp:433] pool1 -> pool1
I0928 17:58:06.685539 15172 net.cpp:155] Setting up pool1
I0928 17:58:06.686040 15172 net.cpp:163] Top shape: 100 20 12 12 (288000)
I0928 17:58:06.686544 15172 net.cpp:174] Memory required for data: 6074800
I0928 17:58:06.687042 15172 layer_factory.hpp:76] Creating layer conv2
I0928 17:58:06.687543 15172 net.cpp:110] Creating Layer conv2
I0928 17:58:06.687543 15172 net.cpp:477] conv2 <- pool1
I0928 17:58:06.688045 15172 net.cpp:433] conv2 -> conv2
I0928 17:58:06.689548  7084 data_layer.cpp:105] Prefetch batch: 14 ms.
I0928 17:58:06.690049  7084 data_layer.cpp:106]      Read time: 2.505 ms.
I0928 17:58:06.690551  7084 data_layer.cpp:107] Transform time: 7.519 ms.
I0928 17:58:06.693557 15172 net.cpp:155] Setting up conv2
I0928 17:58:06.694059 15172 net.cpp:163] Top shape: 100 50 8 8 (320000)
I0928 17:58:06.694059 15172 net.cpp:174] Memory required for data: 7354800
I0928 17:58:06.694561 15172 layer_factory.hpp:76] Creating layer pool2
I0928 17:58:06.695061 15172 net.cpp:110] Creating Layer pool2
I0928 17:58:06.695562 15172 net.cpp:477] pool2 <- conv2
I0928 17:58:06.696064 15172 net.cpp:433] pool2 -> pool2
I0928 17:58:06.697567 15172 net.cpp:155] Setting up pool2
I0928 17:58:06.698068 15172 net.cpp:163] Top shape: 100 50 4 4 (80000)
I0928 17:58:06.698570 15172 net.cpp:174] Memory required for data: 7674800
I0928 17:58:06.698570  7084 data_layer.cpp:105] Prefetch batch: 8 ms.
I0928 17:58:06.699071 15172 layer_factory.hpp:76] Creating layer ip1
I0928 17:58:06.699071  7084 data_layer.cpp:106]      Read time: 0.502 ms.
I0928 17:58:06.699573 15172 net.cpp:110] Creating Layer ip1
I0928 17:58:06.699573  7084 data_layer.cpp:107] Transform time: 5.514 ms.
I0928 17:58:06.699573 15172 net.cpp:477] ip1 <- pool2
I0928 17:58:06.700073 15172 net.cpp:433] ip1 -> ip1
I0928 17:58:06.708092  7084 data_layer.cpp:105] Prefetch batch: 8 ms.
I0928 17:58:06.708595  7084 data_layer.cpp:106]      Read time: 1.504 ms.
I0928 17:58:06.708595  7084 data_layer.cpp:107] Transform time: 4.008 ms.
I0928 17:58:06.747186 15172 net.cpp:155] Setting up ip1
I0928 17:58:06.748191 15172 net.cpp:163] Top shape: 100 500 (50000)
I0928 17:58:06.748191 15172 net.cpp:174] Memory required for data: 7874800
I0928 17:58:06.748690 15172 layer_factory.hpp:76] Creating layer relu1
I0928 17:58:06.749196 15172 net.cpp:110] Creating Layer relu1
I0928 17:58:06.749196 15172 net.cpp:477] relu1 <- ip1
I0928 17:58:06.749693 15172 net.cpp:419] relu1 -> ip1 (in-place)
I0928 17:58:06.750196 15172 net.cpp:155] Setting up relu1
I0928 17:58:06.750196 15172 net.cpp:163] Top shape: 100 500 (50000)
I0928 17:58:06.750695 15172 net.cpp:174] Memory required for data: 8074800
I0928 17:58:06.750695 15172 layer_factory.hpp:76] Creating layer ip2
I0928 17:58:06.751196 15172 net.cpp:110] Creating Layer ip2
I0928 17:58:06.751196 15172 net.cpp:477] ip2 <- ip1
I0928 17:58:06.751699 15172 net.cpp:433] ip2 -> ip2
I0928 17:58:06.753222 15172 net.cpp:155] Setting up ip2
I0928 17:58:06.753707 15172 net.cpp:163] Top shape: 100 10 (1000)
I0928 17:58:06.753707 15172 net.cpp:174] Memo